…
pre-trained on ImageNet (Russakovsky et al., 2015).\nOur classi\ufb01er consists of one dense layer with 512 neurons and a recti\ufb01ed linear ac-\ntivation followed by a dense layer with two neurons and a softmax activation. The\nVGG16 weights were frozen during training.\nAn important note is that these model architectures have many different param-\neters that can be tuned to ensure higher robustness against attacks. However, our\nstudy focuses on aggregator techniques in FL to improve the overall robustness. Con-\n\n\n12\nAmin Eslami Abyane et al.\nLayer\nOutput Shape\nParam #\nconv2d 0\n(None, 26, 26, 32) 320\nmax pooling2d 0 (None, 13, 13, 32) 0\nconv2d 1\n(None, 11, 11, 64) 18496\nmax pooling2d 1 (None, 5, 5, 64)\n0\n\ufb02atten 0\n(None, 1600)\n0\ndropout 0\n(None, 1600)\n0\ndense 0\n(None, 10)\n16010\nTotal params: 34,826\nTrainable params: 34,826\nNon-trainable params: 0\n(a) Fashion MNIST\nLayer\nOutput Shape\nParam #\nconv2d 0\n(None, 32, 32, 32) 896\nconv2d 1\n(None, 30, 30, 32) 9248\nmax pooling2d 0 (None, 15, 15, 32) 0\ndropout 0\n(None, 15, 15, 32) 0\nconv2d 2\n(None, 15, 15, 64) 18496\nconv2d 3\n(None, 13, 13, 64) 36928\nmax pooling2d 1 (None, 6, 6, 64)\n0\ndropout 1\n(None, 6, 6, 64)\n0\n\ufb02atten 0\n(None, 2304)\n0\ndense 0\n(None, 512)\n1180160\ndropout 2\n(None, 512)\n0\ndense 1\n(None, 10)\n5130\nTotal params: 1,250,858\nTrainable params: 1,250,858\nNon-trainable params: 0\n(b) CIFAR-10\nTable 1 Model summary for generic datasets.\nsequently, we use the models exactly as they were proposed. Lastly, Our se
…
